lightning_logs/nq7lc6op/epoch=98-step=198.ckpt (torch, 644006 bytes, 72 tensors)

model.sequential.convlstm1.convLSTMcell.W_ci f4 [5, 32, 32]
000000 0c 3e 7e bc 41 27 69 bc 48 e0 65 3d eb 2e 57 3d
       -0.015517723 -0.01423055 0.056122094 0.05253498
000010 12 9f 45 bd d2 f9 0e 3d 5e c8 8f bd ba 3a 78 bd
       -0.048247404 0.034906216 -0.07020639 -0.06060288
000020 26 43 b2 3c 83 20 89 3a 61 07 13 bd c3 fd 73 bd
       0.021760534 0.001046196 -0.03589571 -0.059568178
000030 69 c3 e1 bc 7f e7 3d 3d a0 f0 55 bd e8 29 a2 bd
       -0.027559 0.04636335 -0.05223143 -0.07918149
000040 38 dc 22 3d f1 d8 98 bc d3 8a 80 bd 0d a9 e0 bc
       0.0397608 -0.018658133 -0.062764786 -0.02742436
000050 b9 3d 3d bc 0f 7b 69 bd 60 73 ac bd 8a 0a 52 3b
       -0.01155036 -0.057002123 -0.084204435 0.0032049739
000060 1d d7 69 bd 68 29 ae bc 49 b8 32 bd 15 af cf bc
       -0.057089914 -0.021259978 -0.04363278 -0.02535204
000070 ed d9 ed 3d f8 91 4c 3c 7b f2 d2 bc 63 8a 25 3d
       0.11613832 0.012485974 -0.02575039 0.04041518
000080 34 2d db bc 00 c6 84 3d 72 e0 9b bc 93 d6 0c bd
       -0.026754953 0.06483078 -0.019027922 -0.03438432
000090 ea e0 d7 bb db d3 bc 39 72 5f 5e 3d 1a 38 91 bd
       -0.006588091 0.00036016 0.054290242 -0.07090779
0000a0 20 16 a6 bb 4c fb 00 3d a3 91 20 bd 14 2a 14 bd
       -0.0050685555 0.031489655 -0.03920139 -0.03617294
0000b0 70 e9 0c 3d 88 33 8c bd a5 b7 aa 3c e5 a5 87 bd
       0.03440231 -0.06845766 0.020839522 -0.06623439
0000c0 26 34 31 3d eb 19 bd bd 04 34 33 3d 9c 02 8a bd
       0.043262623 -0.09233459 0.043750778 -0.06738779
0000d0 f4 17 75 bd 0b 81 89 3a 66 72 42 3d 04 38 6e bd
       -0.059837297 0.0010490728 0.04747238 -0.05815889
0000e0 33 ca f0 bc 05 04 7a 3d 56 b1 04 3c a0 a9 6c 3d
       -0.029393291 0.06103899 0.008098921 0.057778955
0000f0 5b b6 17 3d 05 b7 3b 3c a2 c5 0f bd 18 82 7c 3d
       0.037039142 0.0114572095 -0.035100587 0.061647505
000100 cb d1 cf bc 9c a4 46 bd 7f 19 df bc 45 7b 56 ba
       -0.025368592 -0.048496827 -0.027233837 -0.0008181821
000110 9c 9a ef bc d9 34 2e bd a5 b8 16 3c 91 f6 12 3c
       -0.029248528 -0.04253087 0.009199296 0.008969919
000120 50 05 51 bd be b4 4f bd b6 ea b3 bc 79 51 a2 3a
       -0.051030457 -0.05070948 -0.021962505 0.00123839
000130 6b be 9e 3c b8 22 31 3a c3 c3 b5 bb 29 21 1a bd
       0.019377908 0.00067571877 -0.0055470183 -0.03762928
000140 25 55 84 bb a5 89 60 3c b3 93 6b 3d fd e9 8d bd
       -0.0040384703 0.013704692 0.057513904 -0.06929395
000150 df fc 39 bd b3 78 49 bd 64 da db bc 1c ba a1 3d
       -0.045407172 -0.049187373 -0.026837535 0.07896826
000160 fc 77 a1 3d b5 49 3a bd 55 ac fa bb fa ae 6a 3d
       0.07884213 -0.04548045 -0.007649938 0.057295777
000170 81 7d d1 3d 81 b3 a2 3d a3 a3 d5 3c 31 53 64 bd
       0.10229016 0.07944394 0.026079005 -0.0557434
000180 f2 7d 84 3d 6d 06 73 bd 70 24 1a bc 6a b6 8f bc
       0.06469335 -0.0593323 -0.009408101 -0.017543036
000190 26 e6 f7 3c c4 ef 86 3d f3 68 5d 3d d2 ad 84 bd
       0.03026111 0.065887004 0.054055165 -0.06478466
0001a0 14 e0 40 bd 50 1e f1 bc 14 f1 39 bd db e2 8b 3d
       -0.047088698 -0.0294334 -0.045395926 0.068303786
0001b0 58 04 ce bb f0 6a 41 bd d8 4a 2f bd 6a eb 6f bd
       -0.006287139 -0.047221124 -0.042795986 -0.058574118
0001c0 16 9a 9a 3c 20 04 67 bd aa 1c b6 bd fc b6 8f bd
       0.018872302 -0.05640042 -0.08892186 -0.070173234
0001d0 ca 10 fb 3c 5a 3f 40 3d 40 22 c2 bd 69 fc dc 3b
       0.030647654 0.046935417 -0.09479189 0.006743957
0001e0 a2 85 81 3d 68 a5 ae 3c b1 22 d8 bb c1 6d 8b 3c
       0.063243166 0.021319106 -0.0065959324 0.017020108
0001f0 de d1 dc 3c 1f e3 a3 3d 26 79 5a 3d a8 85 33 3d
       0.026955541 0.08002304 0.053338192 0.043828636
000200 94 57 24 3d 65 e0 05 bd 59 3f 3e 3d 81 31 8f 3d
       0.040122584 -0.032684702 0.04644713 0.06991864
000210 4d d4 d7 bc 95 b1 8f bc f1 f7 fd 3d 47 6e 64 bd
       -0.02634635 -0.017540732 0.12400807 -0.05576923
000220 c8 9d e6 3c fb 0d 88 3c d9 ca 37 3d 4c bb 10 be
       0.028151408 0.016608229 0.044871185 -0.14133948
000230 70 26 3a bd a6 35 4b 3d 11 59 ca 3c e8 a0 4c bc
       -0.045446813 0.04961171 0.024700673 -0.012489535
000240 b2 07 7f bd 1b b7 f9 bc de d3 60 bd e5 9b e3 bd
       -0.0622632 -0.03048282 -0.054889552 -0.11113719
000250 93 67 8f 3d 76 91 a8 bc 57 78 27 3d b5 a7 6a 3d
       0.07002177 -0.020577174 0.04088625 0.057288844
000260 0d e2 04 3d d2 84 97 bd f8 ba 12 3d 06 a5 c5 b9
       0.03244214 -0.0739838 0.03582284 -0.0003769772
000270 67 0f de 3c 1a d0 8f bd ed 43 63 3d dc 33 88 3d
       0.027106954 -0.07022114 0.0554847 0.066505164
000280 74 a3 87 bd 7d 0e f4 3b 46 ea 78 3d c9 11 54 bd
       -0.06622973 0.007448016 0.060770296 -0.051774774
000290 cf 58 bf 3c 21 33 fb 3c 98 5e 74 3d 98 3f 92 3d
       0.023357777 0.030664029 0.059660524 0.07141036
0002a0 4e ad 60 3d e1 29 7a 3d f2 60 11 bc 2f 55 86 3d
       0.054852776 0.061075095 -0.008873211 0.06559216
0002b0 38 d5 17 be b8 8b a4 bc e8 19 79 bc 57 54 54 bd
       -0.1482743 -0.020086154 -0.01520393 -0.051838245
0002c0 e2 d6 05 3d 5e 87 09 3d 4f b9 3b 3d 1c 56 46 3d
       0.03267563 0.03357636 0.04583102 0.048421964
0002d0 f2 cf 59 bd 22 a8 79 bb 9d 0e 18 3d 1e ad 97 3c
       -0.053176828 -0.00380946 0.03712331 0.018515166
0002e0 cd f0 15 3d 5c 0b e8 bc f7 d7 af bc 68 fa 73 3d
       0.0366066 -0.02832573 -0.021465285 0.059564978
0002f0 00 83 9c bc 61 8b 4a bd 4a 05 41 3d 5c f0 51 3d
       -0.019105434 -0.04944933 0.047124185 0.051254615
000300 4b dc b6 bc 9b 9f e5 bb a8 ca 5f bd e8 c8 64 bd
       -0.02232184 -0.007007552 -0.054636627 -0.05585566
000310 73 2a 7a 3b e3 b0 db 3c 4e c2 80 3d 17 79 69 bd
       0.0038172274 0.026817745 0.06287061 -0.057000246
000320 25 37 21 bc df 76 c9 3a 51 9b 13 3d e2 20 35 3d
       -0.009839808 0.0015370509 0.036036793 0.044220813
000330 7f 2e 9f 3d d5 e8 0f 3d d2 cb dd bc 6d 3b 50 bd
       0.0777254 0.035134155 -0.027074728 -0.050837923
000340 1b 6d 82 bd b0 6b 67 3b 44 66 8d 3d e8 d7 77 bc
       -0.063684665 0.003531199 0.06904271 -0.01512716
000350 67 ca 94 bc 14 74 61 bd 1b a7 1c bd 93 db 38 3d
       -0.01816292 -0.05504234 -0.0382453 0.045131277
000360 c2 bc 8f bd 13 4f 4d bd ff f9 57 3d 7f 12 8a 3c
       -0.070184246 -0.05012424 0.05272865 0.016854523
000370 82 6e 91 bb 84 7d 50 3c 92 99 75 bc 0c 51 51 bd
       -0.0044382224 0.012725238 -0.014990227 -0.051102683
000380 2d 3b 88 bd 7d c6 3f 3d 06 b8 0a bc 45 94 d8 bc
       -0.06651912 0.046820153 -0.008466726 -0.026437888
000390 ec 85 96 bc 01 09 1f bd 1b b9 ac bc 31 4c 7a bd
       -0.018374406 -0.038826946 -0.021084359 -0.061107818
0003a0 f9 33 5a 3d 4d 21 ee 3c fc 0c 13 bd bc b5 d4 bc
       0.05327222 0.029068613 -0.035901055 -0.025965564
0003b0 77 df 21 3d 90 21 b4 bc 92 af 43 3d fb 45 8a 3c
       0.039519753 -0.02198866 0.04777486 0.016879072
0003c0 bb 8a 37 bd 48 15 92 3c a6 b8 8e 3b 95 a9 7e 3d
       -0.044810038 0.017832413 0.004355508 0.062173445
0003d0 fa ff d2 bc ab e9 95 bc 06 3a 7b 3d 23 1b 6e bd
       -0.025756825 -0.018299898 0.061334632 -0.05813135
0003e0 c9 87 a8 3b 3a 78 8c 3d 58 bc 02 bd 54 c4 8b 3d
       0.00514314 0.06858869 -0.0319179 0.06824556
0003f0 b1 5d 81 3d 85 a2 87 3d f9 63 f6 bb 77 d5 82 3d
       0.06316698 0.06622795 -0.007519242 0.063883714

model.sequential.convlstm1.convLSTMcell.W_co f4 [5, 32, 32]
000000 31 65 ad 3c d8 38 4f 3d 95 86 12 3c 95 fc 1b 3c
       0.021166416 0.05059132 0.00894322 0.0095206695
000010 3a 99 4e bc 42 0b 7d bd 4d a9 d1 bd b9 23 2d bd
       -0.012609774 -0.061778314 -0.1023737 -0.042270396
000020 88 54 72 bc 37 d2 8d bd dd 91 44 bd de 75 84 3d
       -0.014790662 -0.06924861 -0.04799067 0.06467794
000030 7e 03 25 3c 4a 3a b8 3d d4 e1 80 3c 9a 47 d6 3c
       0.010071633 0.08995493 0.015732683 0.02615719
000040 2c ea 50 bc ab b8 ac 3d 16 3f c3 bd 0c b4 e4 bd
       -0.012751143 0.0843366 -0.09533517 -0.11167154
000050 d1 20 42 3d 22 93 42 bd 70 4f 0b 3d dd 2a 47 3d
       0.047394577 -0.047503598 0.034011304 0.048624862
000060 c5 f8 fe bb 84 cd c1 bc db 58 87 3c 63 c4 a4 3d
       -0.0077811205 -0.023657568 0.016521862 0.0804527
000070 12 03 77 3d 37 ec db 3d 27 72 0f 3d bc 4f 7c 3b
       0.060305662 0.10738414 0.035020974 0.0038499674
000080 6f 19 10 bd 75 a7 d5 bb eb e9 02 bd 16 c2 60 bd
       -0.035180505 -0.0065202066 -0.031961363 -0.054872595
000090 39 c4 df bc 22 78 9e bd 42 cb 6b 3b 45 35 1b 3d
       -0.027315246 -0.07737757 0.0035979305 0.0378926
0000a0 1e 2e 02 3e 69 cd 98 bd d8 98 1f bd 65 db 18 3e
       0.12712905 -0.07461054 -0.038964123 0.14927442
0000b0 ef ac 11 be 34 45 c8 3c 91 23 e2 3b af 80 27 3d
       -0.14226125 0.024447061 0.0069012125 0.040894207
0000c0 85 14 da 3c 95 77 2e bc 4c 8a 77 bc bc e7 94 b9
       0.026621113 -0.010648628 -0.015108656 -0.00028401415
0000d0 5d 86 41 3d 24 33 97 bd dc 08 bb bd 4c 35 37 3d
       0.04724728 -0.07382801 -0.09132549 0.044728562
0000e0 7c 06 9c bd df 35 83 3d 48 46 d5 3d d9 ba f5 3d
       -0.07618424 0.064067595 0.10413796 0.11998529
0000f0 21 a9 08 3e 38 6b 41 3d 16 98 84 bd 50 f4 3e 3d
       0.13345768 0.047221392 -0.064743206 0.046619713
000100 da ba 7d bd bc fd 3f bd 11 d5 b7 3c 12 23 ce ba
       -0.061945774 -0.04687284 0.022440465 -0.0015727005
000110 13 8d 31 3d 9d c7 91 bd 9e 62 b5 3b f4 fe 5e bd
       0.04334743 -0.07118151 0.0055354377 -0.05444236
000120 4d fa d1 3d 4f 9a 88 3d eb d4 45 3c 8b 3e 52 3c
       0.10252819 0.06670057 0.012074689 0.012832294
000130 f2 a3 b0 3c f8 5d e1 bd b5 5c a3 3d 63 9c 23 3c
       0.02156255 -0.11004251 0.07976667 0.009986016
000140 7e 03 82 3d fb 5b 72 3d 94 a7 38 3c 66 1a 8c 3d
       0.06348322 0.05916975 0.0112704225 0.068409726
000150 df 66 b7 bd 0e 8d 28 bd fa b1 d4 3a eb 4e 05 3d
       -0.08955168 -0.041150145 0.0016227358 0.032545965
000160 09 1f a2 3d 2f 25 a3 3d 6b d9 6d 3c 61 ef b4 3d
       0.07916076 0.079660766 0.0145171685 0.088347204
000170 af 51 13 3e a8 c0 37 3e 7d be ff 3d d3 9a b8 bd
       0.14386629 0.17944586 0.12487505 -0.090139054
000180 92 18 fa bc db 98 6c bd 0b 63 f9 bd f6 be 53 bd
       -0.030529294 -0.05776296 -0.12177094 -0.051695786
000190 b3 cd 11 bd d4 94 82 3d 19 98 86 bd ae 29 91 bc
       -0.03559656 0.06376043 -0.06571979 -0.01772007
0001a0 cf 27 28 bd fa a6 56 3d 1b 42 6a bc b7 d0 a9 3c
       -0.04105359 0.052405335 -0.014297987 0.020729406
0001b0 91 aa 58 3e f7 33 a9 bd ed 06 90 bd e2 64 f7 bc
       0.21158816 -0.08261865 -0.07032571 -0.030199472
0001c0 8c 32 31 3c 23 5e 89 3d d1 cc 90 3c f4 3c 8f 3c
       0.010815274 0.06707408 0.01767579 0.01748512
0001d0 b4 aa 10 bd 5b 77 08 be e0 f1 16 3d 41 d3 7a bd
       -0.035319045 -0.1332678 0.036851764 -0.061236624
0001e0 b2 c6 69 bd a2 78 3d 3d 89 19 48 3d 61 47 99 3c
       -0.057074256 0.046257623 0.048852477 0.018710794
0001f0 01 67 2c 3c 36 22 85 3d 9d d5 a2 3d a8 01 0b bd
       0.010522605 0.06500666 0.079509 -0.033937126
000200 cc 2f 8e 3d c2 39 b0 3d 76 93 28 bd c4 92 4a 3d
       0.0694271 0.086047664 -0.041156255 0.049456373
000210 90 95 5b bd 46 43 79 bd ce f7 c8 3d 5e 28 94 bc
       -0.05360943 -0.060855173 0.0981289 -0.018085655
000220 d2 1c be 3c 5f 4f f1 bd 41 aa 55 bc b4 88 f3 bd
       0.023207102 -0.11782717 -0.01304108 -0.118913084
000230 80 84 9d 3d a4 06 83 3d 74 03 e7 3c 21 ab ea 3b
       0.07691288 0.06397751 0.028199889 0.0071615134
000240 9b 6c 42 bd 29 f8 3e 3d 8f 79 8c 3d de 04 af bd
       -0.047466855 0.046623383 0.06859123 -0.0854585
000250 b0 bf 90 3c 03 73 c9 bc 8c a0 0b 3c f6 50 f0 bc
       0.017669529 -0.024590975 0.008522164 -0.02933548
000260 07 44 72 bd 95 ef 28 bd 88 6d 42 3d 4c 11 37 3d
       -0.059146907 -0.04124411 0.04746774 0.04469423
000270 87 45 86 3d 97 fc ce 3c 06 2d 88 3d 18 84 da 3c
       0.0655623 0.025266929 0.066492125 0.026674315
000280 c4 8e 08 bd 14 f2 ea bb d4 33 61 bc 18 79 27 3d
       -0.033339277 -0.0071699712 -0.013745267 0.04088697
000290 fa 35 ba bc df 31 1d bd 47 a2 38 3d 71 24 25 bc
       -0.022730816 -0.03837764 0.045076635 -0.010079489
0002a0 6d c5 db bc e8 9e a8 3b de e5 11 bd 15 c1 54 bd
       -0.026827538 0.005145896 -0.03561961 -0.05194195
0002b0 73 df f8 bd 79 8e 7d bc f3 84 17 bd ed 7c 7d bd
       -0.121519946 -0.015475863 -0.036992025 -0.061886717
0002c0 ec 16 73 3d 4b 65 f4 3c ef bd e7 3c 7e cc 20 3d
       0.059348032 0.029833457 0.02828881 0.03925752
0002d0 03 b0 12 bc 14 0f ba 3b f9 e5 93 bc 74 a1 54 bd
       -0.008953097 0.005678067 -0.018053995 -0.051911786
0002e0 2c a1 df ba 4a 7d 1f 3e 45 cc 25 3e ca 08 e1 3b
       -0.0017061583 0.15575138 0.16191204 0.006867503
0002f0 cf ba 13 3e 52 39 6e bc e9 b3 82 3d 17 91 81 bd
       0.1442673 -0.014540033 0.063819714 -0.06326502
000300 60 99 6a 3d a6 2f f4 b8 26 a8 5d bd 11 2e 65 bd
       0.057275176 -0.00011643702 -0.054115437 -0.055952135
000310 72 0a 10 bd 50 04 5e 3d f2 61 4f bd 43 a7 ab bd
       -0.03516621 0.05420333 -0.050630517 -0.08381512
000320 76 74 5e bd 9d e2 85 3b 81 d3 10 bd a4 19 d3 3c
       -0.054310285 0.0040858523 -0.035357956 0.025769062
000330 43 2e 65 bd ea 29 92 bb 8a 42 8c 3a 6b 43 81 3d
       -0.05595232 -0.004460563 0.0010700983 0.06311687
000340 0c 74 46 3d 76 21 29 3e dc 3d 74 ba e6 f7 94 bc
       0.048450515 0.1651667 -0.0009317079 -0.018184613
000350 32 6f 76 3c 45 0a a3 3d b2 69 25 be 99 41 df 3c
       0.0150411595 0.07960943 -0.16153601 0.02725296
000360 fc e8 fe 3c 04 68 e2 bc d6 67 64 3b c5 b6 5a 3d
       0.031116955 -0.02763749 0.003485193 0.05339696
000370 53 82 84 bd a7 d1 da bc c3 7b 12 3d 98 88 1c bd
       -0.0647017 -0.026711298 0.03576256 -0.038216203
000380 2f a7 fa 3b 94 cb 8a 3d 4b ee 8a bd 4a c6 10 bd
       0.0076493244 0.06777111 -0.06783732 -0.035345353
000390 ba e7 b0 bd 8d 38 ec 3d 22 05 10 3d a2 d0 c0 bd
       -0.08637948 0.11534224 0.035161145 -0.094147936
0003a0 32 07 ad bd 4c 28 10 3b aa cc 2f 3d ed 32 71 bd
       -0.08448638 0.0021996675 0.042919792 -0.058886457
0003b0 d6 10 ca 3c f2 18 88 bc 51 1e ab 3d 75 c8 1e bd
       0.024666231 -0.016613457 0.08355392 -0.03876539
0003c0 28 8d 16 3d 4c 17 89 bd 86 0b d4 3c 14 1b 25 bd
       0.03675571 -0.06693897 0.025884401 -0.040309027
0003d0 6a 51 e4 3c a0 68 04 3d a2 0b 6b bd ab 01 02 3e
       0.027870853 0.03232634 -0.05738414 0.12695949
0003e0 e6 74 e9 bd 90 08 35 3d 84 ca df 39 07 76 d2 3c
       -0.1139925 0.04419762 0.0004268476 0.025691045
0003f0 54 a9 d0 3a 27 aa 16 bd 33 87 00 3d 0c c2 58 bc
       0.0015919604 -0.036783364 0.031378936 -0.013229858

model.sequential.convlstm1.convLSTMcell.W_cf f4 [5, 32, 32]
000000 66 d9 4c bd 62 ab a6 b8 28 84 e6 3c 27 ed 4d bd
       -0.050012015 -7.947419e-05 0.028139189 -0.050274994
000010 c1 18 e1 3c 39 70 bd 3c 10 86 c7 3c 94 cd 07 bd
       0.027477624 0.023124801 0.024355918 -0.03315504
000020 23 03 a7 bd bb f7 ab bc 17 76 67 3c a0 0f 34 3d
       -0.08154895 -0.02099215 0.014127276 0.043960214
000030 04 35 66 bc f1 b8 d8 3d 00 ca bc 3d 5a 9c 81 3b
       -0.014050726 0.1058215 0.09218216 0.003955406
000040 94 f9 0d 3d e3 3c 38 3d 23 5a 95 bd 42 09 b0 bd
       0.034661844 0.04497994 -0.07292583 -0.08595516
000050 80 2a 44 3d 58 c5 87 3d 42 95 f7 bc 5d 27 36 bd
       0.047892094 0.06629437 -0.030222539 -0.044471134
000060 d0 be 45 bc d4 51 3a bd c8 ea f0 3c f0 fb 4c 3d
       -0.012069419 -0.045488194 0.029408827 0.050044954
000070 c9 3c 24 3e 98 3b 00 3e 02 f2 10 3d f2 e2 8e 3d
       0.16038813 0.12522733 0.035387047 0.0697688
000080 81 b5 9a bd 42 08 ae bb ed 34 a3 bd ad 91 f2 3c
       -0.075541504 -0.005311043 -0.07969079 0.02961048
000090 b0 c9 f8 3c 5f a5 97 3c 7f 4f be 3d b9 47 67 3d
       0.03036961 0.018511472 0.092925064 0.056464884
0000a0 00 18 88 bd 58 50 9b bc 93 92 8d bd f3 36 89 3d
       -0.06645203 -0.01895921 -0.069127224 0.06699934
0000b0 2f 80 4a 3d 19 4d 3a bd 95 73 f7 bc 29 99 72 bd
       0.04943865 -0.045483682 -0.030206481 -0.059228096
0000c0 19 73 8b 39 7c c8 85 3b 33 46 40 3d c4 5e 35 3d
       0.000265979 0.0040827375 0.046941947 0.04427983
0000d0 ca 07 81 3c 29 ac 84 bc b3 66 a2 bc f2 e9 77 bd
       0.015750784 -0.016195374 -0.019824361 -0.060525842
0000e0 6a 4c a8 bc 95 a6 51 3d a7 88 66 3d 58 97 30 bd
       -0.02054425 0.051184256 0.056282666 -0.043113083
0000f0 db 52 08 3e f4 02 d2 3d 66 4e 5f bd 94 b7 35 bc
       0.13312857 0.102544695 -0.054518126 -0.011091132
000100 ca 7b d0 bd 90 02 17 39 14 27 8d bd ff 50 1e 3d
       -0.10179861 0.00014401437 -0.06892219 0.038651463
000110 bb 6d 19 3d be aa 04 bd 6b 08 23 bd aa de a9 bd
       0.037458163 -0.032389395 -0.03980295 -0.08294423
000120 21 56 d8 bc de d9 a0 3c 6c ed a7 ba ad 50 72 bd
       -0.026408257 0.019635137 -0.0012811846 -0.05915897
000130 96 91 df bc 17 53 dc bc b5 17 6e b9 2d 47 8b bd
       -0.0272911 -0.02689509 -0.0002270628 -0.06800685
000140 c1 bd ba bc c8 c4 a5 bc 09 87 d2 bc 36 a7 35 3c
       -0.02279556 -0.020235434 -0.025699155 0.0110872295
000150 d0 90 86 bd 59 a5 be bd 3a c9 9e bb ac 14 62 bb
       -0.065705895 -0.09308881 -0.0048457654 -0.0034497185
000160 2a 23 b7 3b 3c 86 c7 3c 6e e0 13 bd 9e d3 5d bd
       0.0055889087 0.024356 -0.036102705 -0.054156892
000170 a5 c8 ac 3d 6b b5 82 3c d4 e1 d5 3d 96 df 7b bd
       0.084367074 0.015955647 0.10443464 -0.061492525
000180 3c 5a 8e 3d 82 2e 1a bd a0 a3 31 bd 12 cf 67 bb
       0.069508046 -0.03764201 -0.043368936 -0.0035371226
000190 93 f8 17 bd 4f c0 b0 3c c2 96 09 3d f6 14 5c 3a
       -0.037102293 0.021576075 0.03359104 0.00083954574
0001a0 98 e4 39 3c 1a 51 5c 3d 40 f1 31 bb 08 6c 4b bc
       0.011346005 0.053788282 -0.0027151853 -0.012415893
0001b0 1b d4 2b 3b b8 74 87 bc 3c 65 a1 3c 1f f8 86 bc
       0.0026218954 -0.016535148 0.019701593 -0.016475735
0001c0 fe 36 bd 39 b9 62 8d 3c f7 2b d2 bd 1c 80 da 3b
       0.00036089862 0.017258989 -0.10262292 0.006668104
0001d0 23 02 3b bd c1 44 1b bd 41 9b 82 bd a5 8d 50 3c
       -0.045656335 -0.037907366 -0.063772686 0.012729083
0001e0 89 e7 3b bd be a0 4a 3d 4e a4 48 3d 55 e0 02 3d
       -0.045875106 0.049469702 0.04898482 0.03195222
0001f0 3e a6 36 3d f2 a4 02 bc 2d 1c 23 3e 60 b1 32 3d
       0.044592135 -0.007973896 0.15928717 0.04362619
000200 f9 25 89 bd 02 b7 fe 3b ab ef 73 bd 3b c6 07 3c
       -0.06696696 0.007773281 -0.059554737 0.008287008
000210 e6 9a c9 ba f0 e9 4b 3d 0f 2d 82 3d 46 38 61 bd
       -0.0015381246 0.049783647 0.063562505 -0.054985307
000220 41 39 55 bd 4a 0d ce bc fa 7d d8 bd ba 37 c5 ba
       -0.052056555 -0.025152821 -0.10570903 -0.0015046515
000230 32 f1 0b bd b2 c0 67 3d d1 05 dc bc e1 5f 2b bc
       -0.03416557 0.056580253 -0.026858242 -0.010459871
000240 5a 44 a3 bc 80 c7 d5 3c f1 d2 49 bd 10 9a 00 be
       -0.019930054 0.026096106 -0.049273435 -0.1255877
000250 02 88 1f bd 1a 6b be 3c 83 31 0a 3d d5 a9 3d bd
       -0.038948067 0.02324443 0.033738624 -0.046304543
000260 c3 dd 95 3c 51 cd 63 bb 69 43 68 bd 9e d2 35 bd
       0.01829422 -0.003475983 -0.056704912 -0.044390313
000270 16 db 1a bd f6 64 7a 3d b3 b8 13 3e 92 19 47 bd
       -0.037806593 0.06113144 0.14425926 -0.04860837
000280 53 3d 18 3c 7a 70 74 bb c3 6f e2 bd ca 3b c5 bc
       0.009291965 -0.0037298487 -0.11056473 -0.024076361
000290 1b 7e 8b bd 8e ff 10 3c 70 47 97 3c 6f 8c 86 3c
       -0.06811162 0.0088499915 0.018466681 0.016424386
0002a0 6f 62 44 bc 9a a1 ed bc 85 29 b4 bd 90 c8 45 bd
       -0.011986359 -0.029007722 -0.08796982 -0.048286974
0002b0 cb 7a 56 bd 6a 8d a5 3d 98 9e e3 bc 40 b1 04 bd
       -0.0523632 0.08083613 -0.027785584 -0.0323956
0002c0 fe a0 23 3c ef 35 dc bd 87 95 ca 3d 20 9a 70 bd
       0.009987114 -0.107524745 0.09891801 -0.058740735
0002d0 f2 84 af bc 4e 7c 3c bc f2 cf ab bc 19 c4 d2 bd
       -0.021425698 -0.011504246 -0.02097318 -0.10291309
0002e0 6b 1a aa 3b 57 9e 31 bd 4e 66 16 3d 94 e8 46 bd
       0.0051911375 -0.043363895 0.03671866 -0.048561648
0002f0 bf 60 44 3a 4e 17 81 bd e0 e2 b6 3d ad 3c 4b 3d
       0.0007491223 -0.06303273 0.08929992 0.04961841
000300 50 32 f1 bc c1 55 2a bd bb e0 af 3b 71 4c 18 3b
       -0.029442936 -0.041585688 0.005367366 0.0023238922
000310 68 a2 67 3c 13 a4 59 3d cf a7 3f bd 7e 0c 9b 3c
       0.014137842 0.05313499 -0.046790894 0.018926855
000320 4a ff 2b bd c1 3e f5 bd 41 28 a7 bc db ce e8 3c
       -0.04199151 -0.1197486 -0.020404937 0.028418949
000330 97 b6 22 bc ea bf 51 bc bd 03 a7 bd 57 7e 10 3d
       -0.009931228 -0.012802104 -0.0815501 0.035276737
000340 07 9f 53 bc 7b 78 82 bd 14 74 39 3d aa 34 72 3c
       -0.012916333 -0.06370636 0.045276716 0.014783064
000350 8a 12 5a 3c ad 6c d5 3c f8 65 db bd 92 b2 4e bd
       0.013310084 0.026052797 -0.10712808 -0.050463267
000360 a9 02 86 bd 15 84 c2 3c 84 39 6d 3c af 16 dd 3c
       -0.06543476 0.023744622 0.014479045 0.026988355
000370 66 e8 75 bd 0a 73 55 bd 50 db ac 3c 7a 9b 22 bd
       -0.060036086 -0.052111663 0.02110067 -0.039699055
000380 21 e5 7c 3c 80 40 db 3c 07 24 d5 bc 1c 7a 38 bd
       0.015435488 0.026764154 -0.026018156 -0.045038328
000390 b3 ba 4d 3d 59 e9 aa bd 49 4a 51 3d a6 b0 c9 bc
       0.05022688 -0.08345289 0.051096234 -0.024620365
0003a0 3a cb cd bb 15 96 c6 bc 69 be a5 bd 38 6c 08 3c
       -0.00628033 -0.024241487 -0.080929585 0.008326583
0003b0 89 93 cb 3b c1 dc 4c bd 8a ee 88 3d b8 bd 3e bc
       0.006212656 -0.050015215 0.06686123 -0.011641912
0003c0 fe e3 70 bd 23 8b 1a bd 67 b9 fd 3c f6 73 69 bd
       -0.05881118 -0.037730347 0.030972196 -0.056995355
0003d0 6b 33 c4 bc 70 0d bc bc 10 4d 18 bd 23 b6 23 3c
       -0.0239503 -0.022955626 -0.037182868 0.009992155
0003e0 8f 1b 59 bc f1 85 09 3d 8f 3b 12 bd fd b7 40 bd
       -0.013251199 0.033575002 -0.03570133 -0.047050465
0003f0 3d 81 a4 3d ee db 3b bc 60 26 c8 3c ac dc 07 3d
       0.08032463 -0.01146601 0.024432361 0.033169433

model.sequential.convlstm1.convLSTMcell.conv.weight f4 [20, 6, 3, 3]
000000 a6 7e 89 3d 21 98 96 3d 94 18 e2 bd ef df 72 bd
       0.067136094 0.07353235 -0.11039844 -0.05929559
000010 5f 9d 4f bd 3d 9e 1b 3d 23 df 4b 3c a8 e3 00 3e
       -0.05068719 0.037992705 0.012443337 0.12586844
000020 b1 59 52 3b 03 6b 71 3d 3c 7d 06 bd ca cf e4 bc
       0.0032096917 0.058939945 -0.032834277 -0.027931113
000030 4f a5 93 bd af c7 9f bd 75 c6 76 bd 63 d4 b8 3c
       -0.072092645 -0.078017585 -0.060247857 0.022562211
000040 bd 66 6a 3d a0 33 89 3d 6e cf 3d bd ef c9 09 bd
       0.057226885 0.066993 -0.0463404 -0.033639845
000050 2a ad 86 3d 7e a1 47 3e 6b d7 0f 3c 3a 4a fb 3d
       0.06575997 0.19495198 0.008779387 0.12270017
000060 b2 75 ee 3b 37 42 07 3d 17 58 0b 3e 67 b7 ff bd
       0.007277214 0.03302213 0.13607822 -0.12486153
000070 8a b5 1a 3c 89 c9 1e 3b 24 9c 1d bc 49 51 23 3e
       0.009442696 0.002422901 -0.009619746 0.15948977
000080 22 b5 bc bd 70 57 d3 bc 90 2a bc bd e9 e4 18 be
       -0.09214236 -0.02579853 -0.09187806 -0.14931072
000090 3c 6a 82 bd 2f c6 05 3e 08 17 a0 3d 6a 9a b0 3d
       -0.06367919 0.13063882 0.07816893 0.08623202
0000a0 81 3f b0 3c 85 e6 de bc de dc 1b 3d 6d fa ea bd
       0.021514656 -0.02720953 0.038052432 -0.11473546
0000b0 a4 15 36 bd 72 0c 65 bd 57 50 c2 3d c3 de 9b 3d
       -0.04445423 -0.055920072 0.0948798 0.07610848
0000c0 a7 7e 02 bd 10 4c c2 3a 28 66 b7 3d f7 dd 2f 3e
       -0.031859066 0.0014823694 0.08955032 0.17174517
0000d0 53 c4 68 3d d1 c3 f7 3c 98 2e a0 3d d1 8e d1 bd
       0.056827854 0.03024474 0.07821387 -0.10232318
0000e0 2a ee d7 ba 00 f2 ec bd 20 6e e8 bd 9b 1a bd bd
       -0.0016474177 -0.11569595 -0.1134913 -0.0923359
0000f0 b4 61 7d 3d ce 93 74 3d 5a 7d 9f bd be 3a 2b ba
       0.061860755 0.05971127 -0.07787581 -0.00065318856
000100 85 7b 66 3d be 77 1c bc 60 c2 82 bc 7b 59 c8 3a
       0.05627014 -0.009550033 -0.015961826 0.0015285456
000110 91 60 37 3d 2d ed ef 3d c0 c3 e2 bd 24 e8 89 bd
       0.044769827 0.117151596 -0.110724926 -0.067337304
000120 0e 0e a9 3d d0 29 1d 3e 51 62 22 3e 8f 7b 13 3e
       0.08254634 0.15347981 0.15857817 0.14402603
000130 26 0a 7c 3d 78 db b7 bd 12 86 18 3d 19 c9 53 bd
       0.061533116 -0.08977407 0.037237234 -0.051705454
000140 40 d5 d0 bd 62 a2 e8 3d 16 1f f2 3d 77 de 9c bd
       -0.10196924 0.11359097 0.118223354 -0.07659619
000150 18 03 8e 3c 00 3a 0c bd 88 76 01 3d 26 34 86 bd
       0.01733546 -0.034235 0.03160718 -0.06552915
000160 19 c3 fc 3d 74 30 2a bd 87 bf 82 3d b2 6a d8 3d
       0.123418994 -0.041550115 0.06384187 0.105672255
000170 a8 6c 10 3e 95 f4 9c 3d 53 91 c3 bd 5f 51 2e bd
       0.14103949 0.07663838 -0.09549203 -0.04255807
000180 a2 45 ad 3d e3 13 78 3d fd 2f 90 bd 16 c9 af bd
       0.08460547 0.06056584 -0.07040403 -0.08583276
000190 d4 83 07 3e d0 b4 b9 3d fb 30 89 bd d4 56 d8 bc
       0.13233882 0.0906769 -0.066987954 -0.02640859
0001a0 a2 85 0d be 5a 4c b0 bb b5 c5 b6 bd 13 bc c3 bd
       -0.13820508 -0.0053801956 -0.089244284 -0.09557357
0001b0 ae b2 f5 bb c8 39 06 3d 72 8d 49 bd 67 b4 8a 3d
       -0.007498107 0.03276995 -0.04920716 0.0677269
0001c0 a7 de 95 bd c2 c7 07 3e ca fd be 3d 11 be c4 bd
       -0.07317858 0.13259795 0.0932575 -0.09606565
0001d0 0f ca 95 bc 68 13 f6 3c c9 b5 77 3c b3 c3 3d 3d
       -0.018284826 0.03003855 0.015119025 0.04632921
0001e0 02 fd b7 3d 15 37 b3 3b a1 74 8a bd 75 b7 7d 3d
       0.08983804 0.005469213 -0.067605264 0.061942536
0001f0 a0 e3 23 be e5 0f d6 bd 6e bf 83 bc ec 61 45 bd
       -0.16004801 -0.104522504 -0.016082492 -0.04818909
000200 00 5a 02 bd db da a8 bd e4 0b e8 b9 c8 b6 4c 3d
       -0.031824112 -0.08244868 -0.00044259347 0.049979
000210 02 dc 92 bd e8 2e 02 3c 43 67 df 3d 1b fe 39 3d
       -0.071708694 0.007945754 0.109083675 0.04540835
000220 7b c7 8e 3b 21 e4 08 3c 51 b7 00 3d 14 95 d7 3d
       0.004357276 0.008355171 0.031424824 0.10526481
000230 43 f5 24 3e 7a bb ce 3d ac 16 fb 3d 2b 01 bb bc
       0.16109185 0.10094352 0.12260184 -0.022827705
000240 3d 8f d7 bd 18 e9 50 bd 87 87 db 3d 3a cc 87 3c
       -0.105253674 -0.051003546 0.10719209 0.016576875
000250 4b 6c 5b bd 45 bd b5 bd 01 11 e3 bd c6 f7 cb bd
       -0.053570073 -0.08873991 -0.110872276 -0.099593684
000260 ec 8b 1b bc f7 40 b9 3d 93 10 98 3d 12 a3 02 be
       -0.009493809 0.09045594 0.07425036 -0.12757519
000270 6d fe bc 3d e0 5f e5 bd a3 98 f3 bc c4 1b 50 bd
       0.09228215 -0.11199927 -0.029735869 -0.05080773
000280 c7 1c f9 bc 4a 05 e9 bc f0 e6 13 be 69 20 10 be
       -0.03040923 -0.028444905 -0.14443564 -0.14074863
000290 3f 8e 32 bd a6 af 0e bc f4 c0 b5 bd be 22 fe 3c
       -0.043592688 -0.00870887 -0.088746935 0.031022426
0002a0 15 a2 f7 bd 72 0d d4 bc 44 ac d6 3d 01 a7 16 bc
       -0.120914616 -0.025885317 0.10482076 -0.00919509
0002b0 4d 25 c7 3d 16 63 6a 3d 5e 4d b4 bd 8d 2b 78 3d
       0.097239114 0.057223402 -0.08803819 0.06058841
0002c0 2f d1 9f bc 6a 3b 0e bd bd e5 ad 3d 43 2f 0f be
       -0.019508926 -0.03472463 0.08491085 -0.13982873
0002d0 f8 20 9f 3c 59 f1 58 3c f4 61 08 3e 37 f7 5b 3d
       0.0194249 0.0132411355 0.13318616 0.05370256
0002e0 5c 4a 06 3e b5 36 cb 3d 17 23 c0 bc ef 92 b1 3c
       0.13114303 0.09922544 -0.023454232 0.021676509
0002f0 dd f9 9b bd fb d5 13 3e 47 55 06 3e 73 53 55 3e
       -0.07616017 0.14437096 0.13118468 0.20832615
000300 16 95 8a bd 93 29 05 3c 0d e3 97 bd a2 6a 6c bd
       -0.06766717 0.008127588 -0.074163534 -0.05771888
000310 e7 0f ad bd 4b a2 83 3d 05 90 f4 bd 45 87 b4 bb
       -0.08450299 0.06427439 -0.11941532 -0.0055092894
000320 fb cb 69 3c a3 7d 1d 3d 17 14 d3 bd b0 ae 8c bd
       0.014269824 0.038449895 -0.10306566 -0.068692565
000330 01 ab 0d be 5e 21 ad 3d ea 97 21 bd 24 21 22 3e
       -0.13834764 0.0845363 -0.039451517 0.15832955
000340 a9 ca 17 3d f9 9f ec 3c 6b 0d 00 3d bf 98 25 bd
       0.037058506 0.028884875 0.031262796 -0.040428873
000350 23 0a a5 3c 87 0b 5e 3c 65 92 2f bc fb 9f be 3c
       0.020146435 0.013552553 -0.0107160555 0.023269644
000360 31 26 0a be c8 0f b4 bd ff 8f be 3d f6 cf 8c bd
       -0.13491131 -0.087920725 0.09304809 -0.06875603
000370 ed 3b d1 bc fb ba ef 3d 77 72 f2 3d 9d 38 62 bc
       -0.02554127 0.117055856 0.11838239 -0.013807443
000380 04 65 0e be 0d f9 92 3d e0 f9 cf bd 3d 20 19 bd
       -0.13905722 0.07176409 -0.10155082 -0.03738426
000390 63 3a 45 bd fd 89 df bc 0d 2f 37 bb 10 35 05 3e
       -0.048151385 -0.027287478 -0.0027951628 0.13008523
0003a0 08 d1 75 3c 47 df 06 3e 82 10 be 3d bc 8b ae bd
       0.01500345 0.13171111 0.09280492 -0.08522746
0003b0 56 5a 63 3d 60 39 a3 bd 09 d2 77 bd 3a b2 04 3d
       0.055506073 -0.07969928 -0.06050304 0.032396533
0003c0 22 61 8c 3d 7b 53 ec 3d 28 cf 43 bd 78 85 42 3c
       0.06854464 0.1153936 -0.04780498 0.011872642
0003d0 63 6c 81 3d 52 3a 14 be ca b9 e8 3d 86 32 fc bd
       0.06319501 -0.14475372 0.113635615 -0.12314324
0003e0 68 0e c8 39 67 3e 02 bd 11 6d ae bd 39 55 33 3d
       0.00038157706 -0.031797793 -0.085168965 0.043782447
0003f0 94 cd ed 3d 2d fb 39 bd 26 38 97 bd 5f 82 32 bd
       0.116114765 -0.045405556 -0.07383756 -0.043581363

model.sequential.convlstm1.convLSTMcell.conv.bias f4 [20]
000000 c5 9b 5b 3d ce 56 87 bd d0 22 65 3d 5e 0a e4 bc
       0.05361535 -0.066083536 0.055941403 -0.027836975
000010 18 db 21 3d 22 d0 91 3d a2 b7 d2 3d f0 52 29 bc
       0.039515585 0.07119776 0.102889314 -0.010334715
000020 39 31 97 3c 73 33 cc bd eb 1f 2a bd 5f e1 dd 3d
       0.018456088 -0.09970751 -0.041534346 0.10834002
000030 f6 4b 57 bd df 44 cf 3d 05 6b 3c bd b4 8d 01 bd
       -0.052562676 0.10120558 -0.0460005 -0.03162928
000040 30 f4 0f 3d 86 9a f3 bd 57 be 92 bc dc f0 ee bc
       0.035144985 -0.118947074 -0.017913027 -0.029167585

model.sequential.batchnorm1.weight f4 [5]
000000 b4 00 80 3f 61 99 83 3f 7c ac 80 3f 58 45 80 3f
       1.0000215 1.0281183 1.0052638 1.0021162
000010 2e 00 7c 3f
       0.98437774

model.sequential.batchnorm1.bias f4 [5]
000000 06 4d 0b 3c 26 e5 ba bc 21 ae ea bc c7 9a 07 bd
       0.008502251 -0.022814345 -0.028647484 -0.03310659
000010 8c b5 66 bc
       -0.01408137

model.sequential.batchnorm1.running_mean f4 [5]
000000 f3 cc 82 39 fc bf 95 3d d6 d0 f4 37 12 fb 5d 3d
       0.0002494823 0.07312009 2.9184313e-05 0.054194517
000010 7c ed fa 39
       0.00047860655

model.sequential.batchnorm1.running_var f4 [5]
000000 aa 7a b8 36 8c 27 18 3a 3e 71 75 34 25 4e 66 39
       5.4979073e-06 0.0005804233 2.28586e-07 0.0002196362
000010 f3 37 a6 37
       1.9814795e-05

model.sequential.convlstm2.convLSTMcell.W_ci f4 [5, 32, 32]
000000 90 27 6b bd 28 a4 1e 3d 0c 0d ea 3c 0b 2d e1 bd
       -0.057410777 0.03873077 0.028570674 -0.109949194
000010 8e da ed 3b fe 88 94 bd ce 79 3d 3d ae 38 ab 3d
       0.0072587198 -0.07252692 0.04625874 0.0836042
000020 6a f0 40 3d 37 68 c5 3d 46 23 04 bd da 3d 7f 3c
       0.047104277 0.09639018 -0.032260202 0.015578711
000030 77 f3 26 3d 20 07 87 3c 0d 4c aa 3d e7 b2 2c 3d
       0.04075953 0.01648289 0.08315287 0.042162802
000040 a1 ca ee bc 39 17 e3 bc ae 69 81 3d cc ce c0 3a
       -0.029149355 -0.027721034 0.06318985 0.0014710068
000050 30 a9 19 3c af cf 08 bd 59 3a 03 3d 2c 69 f6 bc
       0.009378716 -0.033401188 0.032038067 -0.030079447
000060 d8 46 d8 3d f3 b1 1d 3d 6e 41 f1 3d cd 35 d6 3d
       0.105603874 0.038499784 0.11780058 0.104594804
000070 14 17 20 3d 83 91 d5 3c 3b 31 81 bc 1f b5 b0 bd
       0.03908451 0.026070362 -0.015770545 -0.08628296
000080 38 ba 03 3e 2b a5 b1 bc d6 76 da 3c 27 d6 a1 bd
       0.12864006 -0.021685204 0.026667994 -0.079021744
000090 9b 9f 0e 3d f7 98 07 bd ff 41 a9 bb 81 8a a6 3d
       0.03482018 -0.033104863 -0.005165338 0.08131886
0000a0 58 aa 9b bd c7 99 8f bc 86 3a ed bc 55 e2 80 bd
       -0.0760085 -0.017529381 -0.02895857 -0.062931694
0000b0 77 21 45 bd 8b cb 92 3d 96 80 02 3c 85 a2 85 3d
       -0.048127618 0.07167729 0.007965228 0.06525139
0000c0 9a 0f 5c bc d3 39 ae 3d c8 fb d3 3d a0 eb f3 3d
       -0.013431454 0.08507123 0.10350758 0.11910176
0000d0 9c 16 45 3c 2c d2 02 3d 6b 7f 00 3d ed f9 e9 3c
       0.012029316 0.031938717 0.031371515 0.028561557
0000e0 a4 34 42 3d aa d5 da 3c 89 77 23 bc ef b2 7d 3d
       0.047413483 0.026713211 -0.00997723 0.061938222
0000f0 67 39 ce bd 29 17 0a 3e 39 89 c6 3d bc f6 99 3d
       -0.100695424 0.13485397 0.09694142 0.07517764
000100 cb a7 c0 3d f8 6e 83 bd 9f ea 54 3c ea 3d e2 3c
       0.09407004 -0.0641765 0.012995391 0.027617414
000110 89 18 91 bc 38 55 5c 3d 40 e7 3e bd f3 1b 97 bc
       -0.017711895 0.05379221 -0.046607256 -0.018445944
000120 ba 55 d8 3d 85 2b 0e 3e ce af 67 bd b3 b6 ce bc
       0.10563226 0.13883789 -0.056564145 -0.025233602
000130 4a ca a1 3a f1 82 a8 3c dd fc 96 3c 01 42 48 bd
       0.0012343612 0.02057025 0.018431121 -0.04889107
000140 20 72 6f 3d e5 a1 2d 3d bc 08 b3 3c 14 c7 34 bd
       0.058458447 0.042390723 0.02185475 -0.04413517
000150 8c ae 83 bd 82 45 1d bd 1f 8d 02 be 1c 31 a3 3d
       -0.064297765 -0.038396366 -0.12749146 0.07968351
000160 75 1b 61 3d 5d be 62 bd a7 14 e3 bc 22 2e 28 3d
       0.054957826 -0.055357326 -0.027719809 0.04105962
000170 10 a2 c3 3d b0 37 a2 bd 91 57 ce 3d 22 96 97 3d
       0.09552395 -0.07920778 0.10075296 0.074016824
000180 07 a5 67 bd 27 90 c3 bd 94 7f 8b 3b b3 33 b8 3c
       -0.056553867 -0.09548979 0.004257152 0.02248559
000190 f7 36 0e bb 47 ba 5c bd eb 15 0e 3d d1 58 ed 3c
       -0.0021700242 -0.053888585 0.03468887 0.028973015
0001a0 79 73 74 3d f7 7c d9 3c ec 1c 4a 3d 18 13 e5 bd
       0.059680436 0.026548846 0.04934399 -0.111852825
0001b0 d7 c5 25 3c a0 cb f5 3c 4a 36 76 bd ea 7b 96 3d
       0.0101179695 0.030004323 -0.060110368 0.073478535
0001c0 09 77 8d bc 6c 9d bc 3d 25 06 43 bd e5 e1 28 3d
       -0.017268674 0.09209713 -0.04761328 0.041231055
0001d0 1a 3b 9f bd 8a 70 bc 3c de aa 06 be a8 86 bc 3c
       -0.077749446 0.023002882 -0.13151118 0.023013428
0001e0 88 03 b2 bc 0a ea 83 3d 0d 62 39 bc 5b 9a 07 3c
       -0.0217302 0.06441124 -0.011314881 0.008276547
0001f0 e6 c6 54 bd 5f a4 90 bd fc cb f8 3c 3b 8b 0b 3d
       -0.051947497 -0.07062601 0.030370705 0.034068327
000200 9c 55 87 3d 89 1a 8b bd 75 8c 43 bd 61 89 02 3d
       0.066081256 -0.067921706 -0.047741372 0.031869296
000210 94 cd f1 3c 9f 95 17 3d 71 0a dc 3d df e1 94 3c
       0.029516973 0.037007924 0.10744179 0.01817411
000220 37 42 d8 bd 38 33 12 bc fe 3e 0a be 1b da 28 bb
       -0.105595045 -0.008923344 -0.13500592 -0.0025764767
000230 e4 56 65 3d 57 26 8d bc fe 31 c2 bd 72 16 25 bd
       0.05599107 -0.017230196 -0.094821915 -0.04030461
000240 df eb 5c bc 1f 19 0f bc df 6c 18 bd eb 82 85 3d
       -0.01348397 -0.008734017 -0.037213203 0.06519111
000250 28 18 d5 bd b1 59 7d 3c 49 ed e5 3b 2c a4 22 bd
       -0.10404998 0.015463279 0.007016812 -0.039707348
000260 ef e2 5c bc 1c 2d 3f bd 7f 50 63 3d 3d 0b c3 bd
       -0.01348184 -0.04667388 0.05549669 -0.09523628
000270 4b 35 b2 3d 70 55 4c 3b c1 ca 3d 3d 4a 0d ec bc
       0.08701571 0.0031178854 0.04633594 -0.02881493
000280 15 73 8b bd 96 09 2f bd 2a 24 e0 3c 72 f2 a7 bc
       -0.068090595 -0.04273375 0.027360994 -0.02050135
000290 92 f3 1e 3d 62 73 65 bd 87 5e cc bc ca f7 fa bc
       0.038806506 -0.05601824 -0.024947418 -0.030635733
0002a0 90 1b ac bd 08 ef b9 3d 5d 37 a6 bd af 54 12 bd
       -0.08403695 0.09078795 -0.081160285 -0.03572529
0002b0 33 ca af 3b d5 ff 0c bd f8 45 f9 bc 07 eb a6 bc
       0.00536468 -0.034423668 -0.030428872 -0.020375742
0002c0 d1 7b 53 3c 69 07 6a bd b3 be c6 bb 3a c9 bc bd
       0.012907938 -0.057135973 -0.0060652136 -0.092180684
0002d0 72 a8 bd bd c2 a1 69 3d 91 fe 40 bd 8e 8e db 3c
       -0.09260644 0.05703903 -0.047117773 0.026801374
0002e0 44 dd 64 bd 65 7d c8 bd 5a a5 3b 3c 6e cd d1 bb
       -0.055875078 -0.09789542 0.011452997 -0.006402663
0002f0 56 4b dc 3d 87 cd 8a bd 82 12 39 bd 06 48 1b be
       0.10756557 -0.067774825 -0.045183666 -0.15164194
000300 25 c9 97 bc 8c a3 92 bd ea 9d 1b 3d 34 92 a7 bc
       -0.01852853 -0.071601 0.037992395 -0.020455457
000310 4d af c9 3b 91 ef f8 3c 05 6b df bc bf 7f aa 3c
       0.0061549307 0.030387672 -0.02727271 0.020812867
000320 e0 3b a2 bd 5e 01 29 3d eb 44 7d 3c cd 17 85 3c
       -0.079215765 0.04126107 0.015458326 0.0162467
000330 75 19 22 3d 6a f7 f9 bd 2c 61 04 bd d2 00 ef bc
       0.03957506 -0.122053936 -0.032319233 -0.029175196
000340 62 bf 08 bc 3e 93 4f 3d 01 71 0b 3d ed ef 02 3d
       -0.0083464105 0.05067753 0.034043316 0.031967092
000350 75 c8 25 bd 9b d3 0c 3d 7c 41 3b 3d 72 91 59 3d
       -0.040474374 0.03438149 0.045716748 0.053117223
000360 20 15 ef 3d 0e 1a be bd 14 2e d0 ba fa a1 89 bc
       0.11673951 -0.09282313 -0.0015882873 -0.01680087
000370 b6 58 c4 3d b4 06 53 3b b2 b3 39 bd c9 d1 6b bc
       0.09587233 0.003220004 -0.045337386 -0.014393278
000380 71 12 c4 3b fd 36 9f 3c f8 31 f7 3b 6c a1 a7 3c
       0.0059836437 0.0194354 0.0075437985 0.020462714
000390 9d bf 7e 3d 58 15 1a bd be aa 8c bd 47 68 8a 3d
       0.062194455 -0.03761801 -0.06868504 0.067581706
0003a0 03 15 96 bd f6 80 1a 3d d7 77 a5 bc 11 21 9e bc
       -0.073282264 0.037720643 -0.020198746 -0.019302877
0003b0 4f 2a 9f 3d 14 ee a0 bd 87 2d 60 3d 2e 5d 98 bd
       0.077717416 -0.0785791 0.05473092 -0.074396476
0003c0 ff b2 95 bc f0 bb cf bc 7b 52 c5 bc 68 56 94 bc
       -0.018273829 -0.02535817 -0.024087181 -0.018107608
0003d0 98 d9 85 3c 9d 91 a8 bc 4d b8 da 3c f9 cf 41 bd
       0.016339108 -0.020577246 0.02669921 -0.04731748
0003e0 75 8c 2b 3e 81 d8 b1 bd 49 6d 0b bd f8 f8 9b bd
       0.16752799 -0.08683873 -0.03403977 -0.076158464
0003f0 7c a1 1f bd 43 fa 0f 3c 1b 5b 7c bd 3a 60 2f 3d
       -0.038972363 0.008787694 -0.061610322 0.04281638

model.sequential.convlstm2.convLSTMcell.W_co f4 [5, 32, 32]
000000 db 51 3f 3d fc c9 7b 3d 56 70 16 3d 90 c8 84 bc
       0.046708923 0.061471924 0.036728226 -0.016208917
000010 bd 34 ea bc 90 fa a9 bc d3 1d 02 bc 04 67 b5 bd
       -0.0285896 -0.02074936 -0.007941681 -0.08857539
000020 bc 36 05 3c 71 a9 86 bd 47 78 5e 3c 27 c7 51 bc
       0.0081307255 -0.06575287 0.013578481 -0.012803829
000030 60 03 39 3d f6 bd 3f bc af 6f a0 3d 06 68 0c 3d
       0.045169234 -0.011703005 0.07833802 0.034278892
000040 8a 77 44 3d 47 17 8e 3d 0c d4 16 bd 5f d0 d6 bd
       0.047965564 0.069380336 -0.036823317 -0.104889624
000050 b4 d7 62 3c 39 61 7c bd e9 3f 68 3d ce 01 6f 3d
       0.013845373 -0.061616156 0.056701574 0.05835133
000060 74 e8 1e bc 34 27 33 3d 01 45 9a 3d a3 ab 9b 3d
       -0.009698976 0.04373856 0.07532693 0.076010965
000070 95 d9 41 bd 4d 82 11 3d e8 db 45 3d 8f e3 ef bd
       -0.047326643 0.035524655 0.048305422 -0.11713325
000080 9d c9 2d 3d b6 05 8b bd 96 c8 a8 3d 15 80 19 bd
       0.0424286 -0.06788199 0.08241384 -0.037475664
000090 1b 70 1f 3c ad 98 0f bd 2f f1 92 ba 71 f6 6c bc
       0.009731318 -0.035057712 -0.0011210794 -0.014463053
0000a0 40 fc 8f bd c0 71 23 3e dd 2c d2 bd bf 6c c9 3d
       -0.07030535 0.15961361 -0.10262463 0.09835195
0000b0 4d 3e ae bc fe e0 61 3e 74 ed d5 3d 41 70 3c 3d
       -0.021269942 0.22058484 0.10445681 0.04600549
0000c0 66 05 ae bc fc b8 a0 3d bb 4a f2 3d 29 e8 9a b9
       -0.021242809 0.07847783 0.1183066 -0.00029546142
0000d0 20 0a 25 bd 6f 38 93 3d c5 64 47 3d 5b bd fb bd
       -0.04029286 0.07188498 0.048680086 -0.12291976
0000e0 60 b0 9a bd ec 65 63 bd d6 be a9 bd f4 d3 f1 bc
       -0.07553172 -0.055517122 -0.08288352 -0.029520012
0000f0 1b 1f ed bc 94 f1 9a 3d 1f 8f 88 3d 1f 27 b3 3d
       -0.028945496 0.075656086 0.06667923 0.08747696
000100 b3 88 9f 3d 48 4b 83 bd 70 4e b6 3d e3 06 a6 bd
       0.07789745 -0.06410843 0.089016795 -0.08106782
000110 ae ef 4a 3d 4f 6a 62 3d 28 b9 cf bd 9b 7f c8 3d
       0.049544983 0.055277165 -0.101427376 0.09789964
000120 c5 75 0b 3d 87 74 c3 3d 9a e9 e1 bd c9 86 a0 bd
       0.03404786 0.0954371 -0.11030884 -0.07838208
000130 c5 59 c9 3b 93 78 c0 3d 3b ed 97 bd 93 64 b1 3b
       0.0061447346 0.09397998 -0.07418295 0.0054136007
000140 40 8b 49 bd 93 66 81 3a 68 2d 0c 3d 1b d8 9e 3c
       -0.049205065 0.0009872488 0.03422299 0.019390156
000150 65 51 18 bd aa ca 70 bd 05 55 f3 bc e5 16 25 bd
       -0.037187 -0.058787026 -0.029703626 -0.040305037
000160 6e e7 19 3d ae d9 31 3d af 59 ba 3b d2 c5 08 3d
       0.037574224 0.043420486 0.0056869606 0.03339178
000170 3b e4 b7 3d 9f 34 a7 bc e2 0d 8c 3d c6 4f b9 3b
       0.089790784 -0.020410834 0.068385854 0.0056552617
000180 a8 29 63 bd eb be 45 3d 7b 0e 63 bd d5 53 02 3b
       -0.05545965 0.048277777 -0.05543373 0.0019886394
000190 36 28 2f bd fa f9 90 3d a3 c3 8c bd f6 05 0a 3d
       -0.042762958 0.07078929 -0.06873252 0.03369709
0001a0 a5 74 5f 3e 2f a5 f8 bc fa 42 4c bc b6 73 bb bc
       0.2182184 -0.030352203 -0.01246714 -0.022882324
0001b0 f9 e1 c5 3c bd 8b 8d 3d 0b 75 3b bd 2c 44 05 bc
       0.024155604 0.069114186 -0.045765918 -0.008133929
0001c0 44 a0 0e 3d f9 fd 0c bd b4 78 b3 3c 4a 86 af bc
       0.03482081 -0.034421895 0.021908142 -0.021426339
0001d0 e4 a8 91 38 a6 58 b3 3c 87 c3 c5 bd b8 8f 7f 3d
       6.945597e-05 0.021892857 -0.096564345 0.06239292
0001e0 26 af 64 3d dd 38 9c 3a d4 cf 48 3d 5d 96 01 bd
       0.055831097 0.0011918802 0.049026325 -0.03163754
0001f0 7b e9 bc 3d 95 f2 87 bd 94 90 8f 3d 7f 34 d4 3c
       0.0922422 -0.06638066 0.07009998 0.025903938
000200 d5 54 5d bb 54 a1 66 3d ed ac 7c bd 49 36 63 bd
       -0.0033772488 0.0563062 -0.061688352 -0.055471692
000210 77 68 b9 3c f9 38 0e 3d eb 1c ae 3d 1b 55 b0 bc
       0.02263282 0.034722302 0.085016094 -0.021524956
000220 d7 e4 63 bd af 15 20 3d 10 48 bd bd 46 76 d2 3c
       -0.05563816 0.03908318 -0.092422605 0.025691163
000230 3b ab f1 bb 04 4a 3e 3c d0 af aa bd e4 1a 96 bd
       -0.0073751486 0.011614326 -0.08334315 -0.07329348
000240 29 92 3a bd 9e 1a a7 3c 00 d6 1a 3d 63 90 48 3c
       -0.045549545 0.020398434 0.037801743 0.012241456
000250 76 3d d2 3c 2f 54 b9 bc 8a 64 72 3d 87 21 1b 3d
       0.025664072 -0.02262315 0.059177913 0.03787377
000260 fd b5 6a bc d1 74 07 bc b9 2b 1b 3d c1 0a 1d 3c
       -0.014325616 -0.008267597 0.037883494 0.009585083
000270 ce 3c ef 3d bb 2c 90 bd cf 7f 7e 3d 91 ea 09 be
       0.116815194 -0.07039782 0.062133607 -0.13468386
000280 1e e0 34 bd b1 93 61 3d 03 10 02 3c f7 fd 0b bc
       -0.044159047 0.05507249 0.007938388 -0.008544437
000290 50 01 17 3d 0d c5 e5 bc 32 d2 de 3d 4e 19 ca 3c
       0.036866486 -0.028048063 0.10879935 0.02467027
0002a0 c1 ac dd bc 76 ae eb bb 34 bf be bd c5 0b 1a 3c
       -0.027059915 -0.007192428 -0.09313813 0.00940222
0002b0 89 1f 6c 3c 84 5a 1e bd 74 0d 96 bd db 7f 9a 3c
       0.014411815 -0.03866054 -0.07326785 0.018859794
0002c0 7a 31 10 3c fd 6d d8 3b 70 41 48 3c 68 52 52 bc
       0.008800859 0.0066049085 0.012222633 -0.01283703
0002d0 22 a1 ce bc df d1 8e bd e5 3b 0b be dc 83 08 bb
       -0.025223318 -0.069736235 -0.13597067 -0.0020830547
0002e0 1d 09 0b be 8c 68 0b be b7 39 26 bd 82 ce 99 3d
       -0.13577695 -0.136141 -0.040582385 0.07510091
0002f0 eb 2b 1b 3e a7 f3 37 bd b5 a1 4e 3d 0f 00 a2 bd
       0.15153472 -0.0449101 0.050447185 -0.079101674
000300 8c cd 89 3a ba 73 52 bc fa 9a 41 3d 2a c0 44 3d
       0.0010513528 -0.012844974 0.047266938 0.048034824
000310 df eb d4 bb 89 f9 7b 3d cd 19 2b 3d 98 c6 c9 3d
       -0.0064978446 0.061517272 0.041772652 0.09852332
000320 cd 25 8d bc d5 22 87 3c ca ef 28 bb 5d f5 4e 3c
       -0.017229939 0.016496101 -0.002577769 0.012631741
000330 33 7d 39 bc 05 2b 9c 3b 76 bd 87 3c 11 ae 51 3c
       -0.011321354 0.0047658705 0.016569834 0.012797848
000340 66 55 c9 3c cf 5b 14 bd 30 ad 78 3d 4c 8d 21 3d
       0.024576854 -0.036220368 0.06071204 0.03944139
000350 54 b2 82 bd 4f 64 ea 3c 72 85 54 3d 8d aa 89 bd
       -0.0638167 0.028612284 0.051885076 -0.06721983
000360 69 12 13 3d b1 9a 88 bd e4 c6 0e bd b9 14 a3 3c
       0.03590623 -0.0667013 -0.034857646 0.019907342
000370 98 7b 4c 3d 97 98 f8 3b cb 4f 33 3d 10 34 d6 3a
       0.049922556 0.0075865495 0.04377727 0.001634242
000380 f5 3d c2 3b 55 3f 95 bc 18 bf 17 3d 68 9a dd 3c
       0.005927796 -0.018218676 0.037047476 0.027051166
000390 c6 6e 11 3e 52 63 43 bc 65 b4 a0 3c 5f ab 71 3d
       0.14202413 -0.011925535 0.019617269 0.059001323
0003a0 99 7e 67 bd f0 ab b4 3d 5d b2 21 be dd e9 e4 bc
       -0.056517217 0.08821857 -0.15790696 -0.027943546
0003b0 85 c0 36 bb eb 19 2a bd b5 e9 8d 3d 12 b3 4a bd
       -0.0027885747 -0.041528624 0.06929342 -0.04948718
0003c0 1f 88 0b 3d 8a 10 f6 ba 9d cc b8 3c 70 54 34 bd
       0.034065362 -0.001877324 0.022558505 -0.04402584
0003d0 00 dd 80 3d f8 a3 92 bc 47 1f 6f bd 87 02 78 bd
       0.062921524 -0.017900452 -0.058379438 -0.060549285
0003e0 6b 52 30 3e 09 52 fb bc cb 14 69 bd 84 55 69 bc
       0.1721894 -0.030678766 -0.056904595 -0.01424158
0003f0 72 3d ec bd 43 a2 ae 3c 5e 75 e5 bc 41 c9 64 3d
       -0.11535157 0.021317607 -0.028010067 0.055855993
